tests_tmpdir/test_core_examples_multi_fidel0/results/successive_halving_prior_example/results/config_13_0/checkpoint.pth (torch, 251143 bytes, 10 tensors)

conv1.weight f4 [6, 3, 5, 5]
0.06246948 0.02798952 -0.088198274 0.03839116 -0.07878622 -0.06630021 -0.10845017 -0.060693726
-0.082467765 0.11043624 -0.07221653 0.055152472 -0.10318777 -0.110329516 -0.10096729 0.09976183
0.017868191 0.098556206 -0.103471674 0.019357093 0.038035624 0.07189277 -0.008417567 -0.07801821
0.022404108 0.06181529 0.09036327 0.00066466175 0.08337904 0.06608736 0.10955294 -0.11251935
-0.013038718 0.066526785 0.05597506 -0.074327014 0.06048301 -0.07632233 -0.009092951 -0.026362114
-0.010444933 -0.04027559 0.11439593 -0.112608865 0.00091729267 0.06166491 -0.036780864 -0.07012356
-0.020849383 -0.045165822 -0.027340164 0.011385874 -0.09259902 0.08777377 -0.0653794 -0.08092223
0.09988226 -0.06994774 -0.0053213136 -0.029018668 0.094620615 0.054860186 0.10769076 0.09401092
0.006982128 0.102424435 -0.06901973 0.0248882 -0.08746429 0.031099427 0.081247985 0.03466441
0.07700069 -0.075133555 -0.023353351 -0.0627299 -0.09462044 0.044987082 0.0072133956 -0.0045890515
-0.062780954 0.024647407 0.031110592 0.016786227 0.049877465 -0.054251064 -0.015229902 0.06558368
0.030632764 -0.0030554398 0.104771964 -0.07886067 0.027705008 -0.046751164 -0.060142968 0.027750516
0.062381435 0.03868327 0.0069964854 -0.05388644 0.009875457 0.1017742 -0.058077626 0.09643037
-0.033339053 -0.025837593 0.036653303 0.095481195 0.014059277 0.06583978 -0.048921466 -0.05209088
-0.114472 0.030859048 -0.03719789 -0.040682763 -0.0060187774 -0.07454498 0.031938273 0.06466451
0.10898577 0.039549507 -0.0024278339 -0.039499335 0.09637875 0.08967758 0.058585394 -0.09180934
0.06889715 0.08371657 0.05882543 0.021913204 0.095074795 -0.011235779 -0.06642313 -0.062109247
-0.08319708 -0.10247894 -0.01112146 -0.054452408 -0.10133186 0.10316204 -0.080221586 -0.07700869
0.022454888 0.053004924 0.06969059 -0.06044082 0.009512236 0.048157584 0.0054802727 -0.02590675
0.066259824 -0.086419836 0.104129754 -0.068959005 -0.10087761 -0.071008906 -0.033637382 0.10546392
0.055943884 0.10786277 -0.11067324 -0.050778184 -0.02324517 0.031146092 -0.0370693 -0.08351965
0.042056944 0.06407322 0.0506875 0.008451649 -0.041664556 0.10149866 -0.02580793 0.011938625
0.029838724 0.05555875 0.027748851 -0.06556433 0.08553233 0.092408836 -0.107953385 -0.08736708
0.09127805 -0.08344277 -0.048766855 -0.00022486672 -0.10191575 -0.022321077 0.08190195 0.059351336
-0.017156852 0.0957432 -0.06733737 -0.057593934 -0.0036880013 0.037306238 -0.070239685 -0.011914508
-0.10937185 -0.09020725 -0.08047352 0.07844326 0.011574098 0.096613705 -0.012029653 -0.07994723
0.09678764 0.018256987 -0.020320265 0.1132144 0.061760962 0.055214744 0.11486093 0.016089767
0.06614214 0.11538417 0.010645077 -0.042851068 -0.044644993 0.022263374 0.07766262 0.027180063
0.013755288 -0.07897294 -0.05397367 0.019174637 0.00547412 -0.08344015 -0.042164795 -0.07954458
-0.013485135 -0.03617662 -0.009239275 0.06428879 -0.07263063 0.057516836 0.008570401 -0.013391697
-0.09504514 -0.057562962 0.11038529 0.0052714427 0.010223975 0.043737005 -0.05656166 -0.11392039
0.027854593 0.07509339 0.056472395 -0.039943464 0.033981632 0.02732808 0.09396171 0.03399482
00000000: ffdf 7f3d 474a e53c 4ca1 b4bd 0d40 1d3d
00000010: ab5a a1bd 68c8 87bd 1f1b debd fc99 78bd
00000020: dce4 a8bd 652c e23d 43e6 93bd 8fe7 613d
00000030: 1c54 d3bd 71f4 e1bd f0c7 cebd ee4f cc3d
00000040: 5060 923c d6d7 c93d f5e8 d3bd c492 9e3c
00000050: 3ecb 1b3d 843c 933d d6e9 09bc 03c8 9fbd
00000060: d288 b73c 0832 7d3d 6110 b93d b23c 2e3a
00000070: a1c2 aa3d cf58 873d 4b5d e03d 8c70 e6bd
00000080: 59a0 55bc 323f 883d 1b46 653d c338 98bd
00000090: 08bd 773d e24e 9cbd 9afa 14bc 5cf5 d7bc
000000a0: 3921 2bbc 04f8 24bd 6a48 ea3d 7a9f e6bd
000000b0: 7876 703a 5894 7c3d 88a7 16bd f19c 8fbd
000000c0: 53cc aabc ccff 38bd 7bf8 dfbc d18b 3a3c
000000d0: 8ea4 bdbd bcc2 b33d a3e5 85bd 8eba a5bd
000000e0: 128f cc3d c340 8fbd 6a5e aebb 8fb8 edbc
000000f0: 74c8 c13d 13b5 603d f98c dc3d cc88 c03d
00000100: 56ca e43b e7c3 d13d 375a 8dbd 57e2 cb3c
00000110: 7a20 b3bd 3ac4 fe3c 5865 a63d 45fc 0d3d
00000120: 8ab2 9d3d 9fdf 99bd 874f bfbc 8978 80bd
00000130: 5cc8 c1bd 6044 383d 595e ec3b c15f 96bb
00000140: 4d93 80bd 5ce9 c93c a4db fe3c 4583 893c
00000150: 504c 4c3d 5d36 5ebd d786 79bc bd50 863d
00000160: 90f1 fa3c c63d 48bb af92 d63d b481 a1bd
00000170: 9df5 e23c 267e 3fbd 7958 76bd 0d55 e33c
00000180: ad83 7f3d 5972 1e3d c642 e53b 07b8 5cbd
00000190: abcc 213c fe6e d03d cee2 6dbd 497d c53d
000001a0: 888e 08bd 5ca9 d3bc c621 163d a58b c33d
000001b0: e258 663c 02d7 863d e061 48bd 3f5d 55bd
000001c0: 4c70 eabd 1dcc fc3c d15c 18bd f8a2 26bd
000001d0: 2a39 c5bb 0aab 98bd b5d1 023d d46e 843d
000001e0: ee33 df3d aafe 213d 4b1c 1fbb 0eca 21bd
000001f0: 3962 c53d e1a8 b73d 3df7 6f3d 8906 bcbd
00000200: f319 8d3d 9873 ab3d eff2 703d 5283 b33c
00000210: 93b6 c23d 4616 38bc da08 88bd 4466 7ebd
00000220: 3b63 aabd 7ae0 d1bd c936 36bc 7d09 5fbd
00000230: 1487 cfbd 9f46 d33d 374b a4bd bbb6 9dbd
00000240: 50f3 b73c b11b 593d f1b9 8e3d cb90 77bd
00000250: 36d9 1b3c e340 453d dc93 b33b 643a d4bc
00000260: 3bb3 873d e2fc b0bd fb41 d53d 613a 8dbd
00000270: ec98 cebd 1e6d 91bd 5ac7 09bd 78fd d73d
00000280: 6a25 653d 28e7 dc3d a7a8 e2bd c9fc 4fbd
00000290: a86c bebc 1726 ff3c fad5 17bd 5a0c abbd
000002a0: e743 2c3d d238 833d b29d 4f3d c978 0a3c
000002b0: 74a8 2abd 88de cf3d 276b d3bc 399a 433c
000002c0: 5770 f43c 9291 633d 8f51 e33c 9746 86bd
000002d0: 932b af3d d840 bd3d aa16 ddbd 83ed b2bd
000002e0: fcef ba3d 0be4 aabd c1bf 47bd 33ca 6bb9
000002f0: 34b9 d0bd b1da b6bc 36bc a73d 631a 733d
00000300: 878c 8cbc 0315 c43d 2de8 89bd 9ee7 6bbd
00000310: 65b2 71bb 6dce 183d d3d9 8fbd 1235 43bc
00000320: 59fe dfbd 94be b8bd 4dcf a4bd dca6 a03d
00000330: 49a1 3d3c 68dd c53d 0618 45bc 60bb a3bd
00000340: 9938 c63d ad8f 953c af76 a6bc f4dc e73d
00000350: 10f9 7c3d db28 623d 353c eb3d b0ce 833c
00000360: 8875 873d 894e ec3d b068 2e3c 9a84 2fbd
00000370: abdd 36bd ae61 b63c 940d 9f3d b9a8 de3c
00000380: dc5d 613c 91bc a1bd 7f13 5dbd 2114 9d3c
00000390: 3f60 b33b abe2 aabd feb4 2cbd 45e8 a2bd
000003a0: c1f0 5cbc ef2d 14bd 5460 17bc d7a9 833d
000003b0: 5ebf 94bd c696 6b3d de6a 0c3c d968 5bbc
000003c0: 07a7 c2bd 24c7 6bbd af11 e23d 11bc ac3b
000003d0: 7682 273c 9325 333d 33ad 67bd 184f e9bd
000003e0: 512f e43c 90ca 993d 994f 673d c29b 23bd
000003f0: 5330 0b3d 23df df3c ff6e c03d 273e 0b3d

conv1.bias f4 [6]
0.091347024 0.10012313 0.1107756 -0.036872733 -0.026492812 -0.08959283
00000000: 2614 bb3d 5b0d cd3d 51de e23d dd07 17bd
00000010: 7407 d9bc 727c b7bd

conv2.weight f4 [16, 6, 5, 5]
-0.027442118 -0.061112434 0.056135114 0.022199204 -0.07822757 -0.010224906 0.01742985 0.056406822
-0.012461416 0.04650485 0.046997722 0.023881232 0.05964604 0.023116276 0.0172531 0.07870058
0.009572719 -0.055269964 -0.023290513 0.081034504 0.073868655 0.01936554 0.040488105 -0.07342178
-0.042316735 0.07242225 -0.039204434 0.0451935 -0.011214802 -0.03869713 -0.011765878 -0.03916333
-0.058463324 0.02814016 -0.057715595 -0.06040646 0.0065060467 -0.05263231 0.032048732 -0.036316253
-0.07960849 -0.037517413 -0.026589697 0.019614082 -0.07906442 0.03587027 -0.028215855 0.06525642
-0.0050651436 0.028022248 0.03451168 -0.0022959625 0.044444583 0.07815837 -0.05962149 -0.05914044
0.022041086 0.043624576 0.024198921 -0.0210895 -0.03588006 -0.046208266 0.031554334 -0.08024439
-0.002134583 -0.060152788 -0.028225482 0.018946342 0.05219965 0.080839016 -0.044640314 -0.041609652
0.015092919 0.011589976 -0.04637632 0.07572155 0.034976568 -0.017015003 -0.03992824 0.019360332
0.059484396 0.022018036 0.039615445 0.080478735 -0.02137683 -0.067130566 0.021139326 0.043457784
-0.06792478 0.037099168 -0.046913218 -0.053711217 0.044614557 -0.055296622 -0.052354712 0.007820503
0.039237283 -0.055145055 0.027519917 0.06663627 -0.033325635 0.022729373 -0.0015278028 0.07414868
0.06349341 0.06902046 0.037816364 0.06260961 -0.055270936 0.03836059 -0.053729136 -0.028362188
-0.03300757 0.0025708142 0.0014473563 0.06671222 0.032938696 -0.030231427 0.038276833 -0.02454398
0.019193687 0.06957159 0.05445801 -0.047167473 0.046706043 -0.07652616 -0.053193547 -0.0570266
-0.00027454997 0.06916577 -0.035349872 0.07466758 -0.054305647 -0.02199636 0.051723998 -0.011746567
0.078915596 -0.06885341 0.008701785 -0.023291778 -0.028585948 -0.04895316 -0.052770007 0.032098256
-0.07062089 -0.019725412 0.010594434 -0.02040271 0.04003086 0.033748243 0.026761979 0.009697073
0.06756689 -0.048123516 0.0344124 -0.08022334 0.06421548 -0.019229399 0.036118053 0.022945113
0.060397 0.013743081 0.05357851 -0.051252287 -0.038767755 0.07238997 0.022018485 0.05048368
0.0703106 -0.031071303 -0.076938115 0.044011135 -0.04235895 0.03552923 0.057759862 0.03734259
-0.013752123 0.06672749 0.030548591 0.050256375 -0.01796063 -0.006756 -0.010545183 0.062324263
-0.029218659 0.023845939 0.010492272 0.040746175 -0.029352307 0.0012794941 -0.06230605 -0.010371948
-0.064908996 0.058770794 0.05340996 0.047645733 0.06691797 -0.02323508 0.013045128 -0.025372759
-0.029642947 0.07450906 -0.047941532 0.02978086 -0.0145702055 0.012491191 0.034945693 -0.019590605
-0.03464716 -0.06880716 0.049156297 -0.04695437 0.03127527 -0.012621054 0.015360577 0.07173401
-0.0016445745 -0.0663763 0.074410535 -0.011347069 -0.01610566 0.03665407 -0.0033687875 -0.062231183
0.06808376 0.027753567 0.037203733 -0.0111634 -0.007924601 0.059765633 -0.063344225 0.017462038
0.008219407 -0.022904078 0.07875827 0.039325137 -0.009408965 0.050132927 0.008941995 -0.0010592857
-0.035987098 -0.028832905 -0.004092086 -0.06406418 0.01812016 -0.019941358 0.039981578 0.041881107
-0.06744494 0.007749031 -0.022659896 -0.0020174999 0.06684119 0.060698844 0.042979766 0.022065118
00000000: 4bce e0bc 0851 7abd efed 653d 1bdb b53c
00000010: c735 a0bd 5d86 27bc 0bc9 8e3c d70a 673d
00000020: f82a 4cbc df7b 3e3d af80 403d 93a2 c33c
00000030: 684f 743d 585e bd3c 6056 8d3c c52d a13d
00000040: e5d6 1c3c c262 62bd bfcb bebc 6bf5 a53d
00000050: 7348 973d 7ba4 9e3c dbd6 253d 285e 96bd
00000060: 5054 2dbd 1e52 943d d494 20bd d21c 393d
00000070: 4abe 37bc e280 1ebd abc5 40bc ba69 20bd
00000080: 3d77 6fbd 3186 e63c 3067 6cbd c46c 77bd
00000090: ad30 d53b fa94 57bd 8845 033d 5ac0 14bd
000000a0: c709 a3bd dcab 19bd a3d2 d9bc b6ad a03c
000000b0: 87ec a1bd b4ec 123d f024 e7bc 28a5 853d
000000c0: 81f9 a5bb ea8e e53c 1f5c 0d3d dc77 16bb
000000d0: 860b 363d 7f11 a03d aa35 74bd 3f3d 72bd
000000e0: 828f b43c afaf 323d d13c c63c e3c3 acbc
000000f0: f8f6 12bd e144 3dbd 1e3f 013d 2c57 a4bd
00000100: 5ce4 0bbb c562 76bd 2039 e7bc 5c35 9b3c
00000110: 4dcf 553d ed8e a53d c3d8 36bd e26e 2abd
00000120: 4a48 773c e2e3 3d3c 19f5 3dbd e613 9b3d
00000130: 9743 0f3d 0c63 8bbc cb8b 23bd 8f99 9e3c
00000140: e9a5 733d 2b5f b43c ce43 223d 09d2 a43d
00000150: 761e afbc c07b 89bd 612c ad3c ca00 323d
00000160: 261c 8bbd 4cf5 173d 1328 40bd 4b00 5cbd
00000170: c1bd 363d b67e 62bd e571 56bd 9121 003c
00000180: 46b7 203d c8df 61bd 7371 e13c 9978 883d
00000190: 7680 08bd f332 ba3c 8e40 c8ba 43db 973d
000001a0: d508 823d 995a 8d3d 55e5 1a3d 7839 803d
000001b0: c763 62bd fe1f 1d3d 1513 5cbd d257 e8bc
000001c0: f232 07bd 1b7b 283b 38b5 bd3a 6ba0 883d
000001d0: baea 063d e6a7 f7bc 2bc8 1c3d 7510 c9bc
000001e0: 143c 9d3c 8d7b 8e3d 5d0f 5f3d ae32 41bd
000001f0: d64e 3f3d bfb9 9cbd 7ae1 59bd b994 69bd
00000200: 79f1 8fb9 c9a6 8d3d 07cb 10bd 51eb 983d
00000210: 996f 5ebd b631 b4bc 8bdc 533d ac74 40bc
00000220: 809e a13d 0403 8dbd ee91 0e3c 66ce bebc
00000230: 142d eabc 1c83 48bd 5d25 58bd 7679 033d
00000240: afa1 90bd 3097 a1bc 4794 2d3c 9623 a7bc
00000250: 66f7 233d 993b 0a3d f03b db3c 79e0 1e3c
00000260: 8260 8a3d 2a1d 45bd 04f4 0c3d 224c a4bd
00000270: 6883 833d f986 9dbc 86f0 133d 64f7 bb3c
00000280: d862 773d a92a 613c 2475 5b3d ebed 51bd
00000290: f0ca 1ebd 3141 943d 1c60 b43c fac7 4e3d
000002a0: 01ff 8f3d 3f89 febc bb91 9dbd 0545 343d
000002b0: 9480 2dbd 1987 113d 9b95 6c3d 8bf4 183d
000002c0: 9650 61bc 6ca8 883d 0a41 fa3c a1d9 4d3d
000002d0: 2c22 93bc 7061 ddbb b4c5 2cbc ba47 7f3d
000002e0: f85b efbc 8f58 c33c c7e7 2b3c 76e5 263d
000002f0: 4074 f0bc b3b4 a73a a134 7fbd 1aef 29bc
00000300: 02ef 84bd a5b9 703d 67c4 5a3d 2c28 433d
00000310: 4a0c 893d 7f57 bebc 3cbb 553c 88da cfbc
00000320: c4d5 f2bc 3598 983d 575e 44bd fdf6 f33c
00000330: dfb7 6ebc daa7 4c3c 3723 0f3d 7a7c a0bc
00000340: 2eea 0dbd c5ea 8cbd 1d58 493d 3a53 40bd
00000350: 7f1a 003d 8ac8 4ebc eeaa 7b3c 48e9 923d
00000360: c38e d7ba 4cf0 87bd 8d64 983d 0fe9 39bc
00000370: 04f0 83bc 9422 163d e0c6 5cbb 20e6 7ebd
00000380: 806f 8b3d 735b e33c f162 183d b1e6 36bc
00000390: 30d6 01bc cfcc 743d 9eba 81bd 8c0c 8f3c
000003a0: b1aa 063c 55a1 bbbc 044c a13d 6513 213d
000003b0: 0f28 1abc 2f58 4d3d 7281 123c bbd7 8aba
000003c0: 3567 13bd fc32 ecbc e816 86bb 1534 83bd
000003d0: bb70 943c 0f5c a3bc b9c3 233d 868b 2b3d
000003e0: 9320 8abd 95eb fd3b 3fa1 b9bc 0838 04bb
000003f0: 09e4 883d 5a9f 783d 8d0b 303d e8c1 b43c

conv2.bias f4 [16]
0.035888363 -0.054608297 0.07254382 0.051463123 -0.062157996 -0.004560915 -0.044046078 -0.01496911
0.027162857 -0.008913223 -0.05561182 -0.027997244 0.028809058 -0.0043948726 0.042987272 0.043000635
00000000: adff 123d f3ac 5fbd db91 943d ffca 523d
00000010: 6299 7ebd ba73 95bb a969 34bd ff40 75bc
00000020: a484 de3c c408 12bc 38c9 63bd 7a5a e5bc
00000030: f900 ec3c dd02 90bb 6c13 303d 6f21 303d

fc1.weight f4 [120, 400]
0.008089132 -0.00010967255 0.020709341 0.0050128223 -0.049345683 0.031083066 -0.04659645 0.025005722
-0.00027865768 -0.011307913 -0.038300406 -0.021067059 0.01833709 0.043478407 -0.0010191202 -0.013627929
-0.026341278 0.027765894 -0.04162065 -0.040846545 0.040996827 -0.02436766 0.002202642 0.036637545
-0.04861141 -0.038271453 -0.02698694 0.009517747 -0.042185135 -0.008758152 0.034428593 0.015598166
0.008286292 -0.046765584 -0.002595985 0.020731885 0.009514463 0.013886529 -0.031817336 -0.015355075
-0.010738397 -0.017531216 0.046319164 -0.029957373 -0.043233145 -0.031118674 0.019264663 -0.011625463
-0.0060046315 -0.022693843 0.030359615 0.016494632 0.01905678 0.044235732 -0.021003336 -0.045115512
-0.019512255 -0.0061644614 -0.015889311 0.022399051 0.03306797 -0.029185563 0.017412007 0.0165904
-0.0009708524 0.044832088 0.03484556 0.02519933 0.033736166 -0.04716755 0.015706772 0.04290625
0.013581711 -0.04283868 -0.025918787 0.015418559 0.014102966 0.021829976 0.021021312 -0.008440751
0.044389665 -0.004437727 -0.0017585099 0.023034329 -0.037825793 0.0124717 0.02140606 0.04727615
-0.02782544 0.023725195 -0.04371158 -0.049635746 0.035734355 -0.025976008 0.013364846 0.034578104
-0.025142485 0.0429444 -0.03745217 -0.012345201 -0.01090312 -0.0024087073 -0.041993927 -0.0020894767
0.027224166 0.033397924 0.024014592 0.016062235 0.048286315 0.015391034 0.042908568 -0.0011582434
-0.010488587 -0.031562477 -0.019884897 -0.011567205 -0.041370727 0.026641024 -0.0276254 0.0052042543
-0.020311428 0.03264123 -0.01812833 -0.0054152906 0.024502201 0.004759407 -0.0047106626 -0.04287971
0.0023239076 0.04870234 0.015897369 0.03553778 0.044193625 -0.024924254 -0.036005348 0.048665017
-0.013068408 -0.04153539 0.030617476 0.006418717 -0.037039805 0.029327607 0.040646095 0.04887816
0.005356807 -0.023223221 0.023594333 -0.022496928 0.047258046 -0.04094289 -0.03132942 -0.0089176595
-0.02781341 -0.011861098 0.018130297 0.010893322 0.003982389 0.03300744 0.04481126 0.01399703
0.036582977 0.036224652 -0.029233515 -0.048849653 0.026484383 -0.03484636 -0.011417818 -0.02831064
-0.035801746 0.03130833 0.042187344 0.038076546 -0.00077060465 -0.03046158 0.043161966 -0.042795267
0.04034872 -0.03351238 0.029890133 -0.032726146 -0.0057424246 -0.014815509 -0.0070874034 -0.011356932
-0.0042939484 0.03481638 -0.017916882 -0.029286986 -0.0019744814 -0.047222912 -0.047233727 0.010467309
-0.039065775 -0.013476819 0.029753476 -0.044552486 0.007354653 -0.043187242 0.042834133 -0.042186428
-0.027813781 -0.012859083 0.011493171 0.0033557594 0.03249051 -0.01953171 0.022292072 -0.03539296
0.006828797 -0.004178554 -0.006911248 0.01519748 -0.04583245 -0.010436577 -0.026153404 -0.022037996
0.027328515 -0.016769398 -0.021563305 -0.035374414 0.023898238 -0.011297518 0.02184167 -0.024803562
-0.022742081 -0.033310957 -0.041101586 -0.045766164 0.04478352 -0.04274195 -0.012591183 -0.042028364
-0.0003554106 -0.049367286 -0.0015825093 -0.028212303 0.030429834 0.046705723 0.02801972 0.043869894
-0.01665374 -0.012255984 0.0126390755 -0.00067482 0.049461152 -0.014169949 -0.013166196 -0.02376535
-0.027900636 -0.02486292 0.031007707 0.011529589 0.020449013 -0.032879777 -0.049210604 0.015656495
00000000: 4788 043c 0000 e6b8 a3a6 a93c 9a42 a43b
00000010: b31e 4abd eaa1 fe3c ebdb 3ebd cdd8 cc3c
00000020: cd18 92b9 d344 39bc e3e0 1cbd d394 acbc
00000030: aa37 963c 6a16 323d 0094 85ba ad47 5fbc
00000040: aac9 d7bc 4d75 e33c 6a7a 2abd b54e 27bd
00000050: 4aec 273d b09e c7bc 335a 103b 4011 163d
00000060: c21c 47bd 87c2 1cbd b713 ddbc 53f0 1b3c
00000070: 52ca 2cbd 5a7e 0fbc ff04 0d3d 738f 7f3c
00000080: 3ac3 073c 458d 3fbd 6721 2abb ead5 a93c
00000090: 8de2 1b3c 5384 633c e552 02bd da93 7bbc
000000a0: 1af0 2fbc a09d 8fbc 2ab9 3d3d 2a69 f5bc
000000b0: 3d15 31bd 97ec febc edd0 9d3c ba78 3ebc
000000c0: 80c2 c4bb 70e8 b9bc bab4 f83c c01f 873c
000000d0: f71c 9c3c 8730 353d 300f acbc 0bcb 38bd
000000e0: 2ad8 9fbc 40ff c9bb 4d2a 82bc 377e b73c
000000f0: 4872 073d 9016 efbc a0a3 8e3c 97e8 873c
00000100: cd80 7eba daa1 373d 38ba 0e3d d36e ce3c
00000110: ef2e 0a3d c332 41bd 7dab 803c 77be 2f3d
00000120: d385 5e3c 9d77 2fbd a353 d4bc 209e 7c3c
00000130: 2010 673c c7d4 b23c e334 ac3c 134b 0abc
00000140: f0d1 353d 5a6a 91bb cd7d e6ba 7db2 bc3c
00000150: 38ef 1abd 1a56 4c3c c35b af3c a3a4 413d
00000160: 2df2 e3bc 575b c23c ea0a 33bd da4e 4bbd
00000170: 305e 123d a3cb d4bc 3af8 5a3c c5a1 0d3d
00000180: 9df7 cdbc 78e6 2f3d 7267 19bd 8743 4abc
00000190: 00a3 32bc 67db 1dbb d301 2cbd 9aef 08bb
000001a0: 3705 df3c 43cc 083d 40ba c43c f394 833c
000001b0: dfc7 453d ad2a 7c3c e5c0 2f3d 33d0 97ba
000001c0: 53d8 2bbc a847 01bd a7e5 a2bc 6084 3dbc
000001d0: 5a74 29bd 473e da3c aa4e e2bc 7388 aa3b
000001e0: 2764 a6bc cfb2 053d dd81 94bc c072 b1bb
000001f0: d7b8 c83c cdf4 9b3b e75b 9abb a3a2 2fbd
00000200: b34c 183b 1b7c 473d 333b 823c 1090 113d
00000210: 6004 353d f32d ccbc 587a 13bd f854 473d
00000220: e01c 56bc 0321 2abd 80d1 fa3c 1a54 d23b
00000230: 0db7 17bd 7340 f03c 857c 263d 7734 483d
00000240: 2788 af3b a03e bebc e748 c13c 7a4b b8bc
00000250: a791 413d bbb3 27bd 4753 00bd 601b 12bc
00000260: f3d8 e3bc 0d55 42bc fd85 943c e779 323c
00000270: b37e 823b cf32 073d 038c 373d cd53 653c
00000280: 08d8 153d 4d60 143d 207b efbc 9316 48bd
00000290: c7f5 d83c 0fbb 0ebd cd11 3bbc b7eb e7bc
000002a0: daa4 12bd 2a3d 003d a3cc 2c3d 27f6 1b3d
000002b0: 6702 4aba 908a f9bc 9aca 303d 174a 2fbd
000002c0: b344 253d 4744 09bd 27dc f43c da0b 06bd
000002d0: f32a bcbb c0bc 72bc 733d e8bb 6d12 3abc
000002e0: 40b4 8cbb 9f9b 0e3d 6dc6 92bc 43eb efbc
000002f0: 4d66 01bb d06c 41bd 2778 41bd 137f 2b3c
00000300: 6f03 20bd e0cd 5cbc 90bd f33c ab7c 36bd
00000310: 4dff f03b 1be5 30bd d872 2f3d adcb 2cbd
00000320: bad9 e3bc e7ae 52bc da4d 3c3c 4dec 5b3b
00000330: c514 053d f700 a0bc dd9d b63c 35f8 10bd
00000340: 1ac4 df3b 40ec 88bb c077 e2bb dafe 783c
00000350: cfba 3bbd 2dfe 2abc aa3f d6bc 0789 b4bc
00000360: 0de0 df3c fa5f 89bc 87a5 b0bc c3e4 10bd
00000370: 3dc6 c33c 3a19 39bc 4ded b23c d730 cbbc
00000380: 9a4d babc 1271 08bd 235a 28bd 4d75 3bbd
00000390: ed6e 373d 2f12 2fbd 404b 4ebc ef25 2cbd
000003a0: 6756 bab9 5a35 4abd 336c cfba 7d1d e7bc
000003b0: fd47 f93c 804e 3f3d 9d89 e53c ebb0 333d
000003c0: 6d6d 88bc 53cd 48bc 2014 4f3c 67e6 30ba
000003d0: c797 4a3d 1329 68bc 07b7 57bc 8daf c2bc
000003e0: e08f e4bc 53ad cbbc e003 fe3c 9ae6 3c3c
000003f0: b084 a73c f2ac 06bd 0f91 49bd 0d42 803c

fc1.bias f4 [120]
0.012500203 -0.022263134 -0.032549936 0.02525614 -0.013606506 -0.003798306 -0.045347102 -0.014692026
0.0048814598 0.032284923 0.013196069 0.03760285 -0.009170986 -0.022453194 -0.01648814 -0.002741903
-0.043060895 0.02558815 0.014180476 0.04424864 0.021477973 0.038100243 -0.03865541 0.012333554
0.022610778 0.003692651 0.013435763 -0.031272836 0.03549425 -0.04544873 -0.025254263 -0.046163674
0.0481621 -0.015249926 0.028033078 -0.0068725883 -0.02741918 -0.043694537 0.026525974 -0.007752705
-0.04463469 -0.013670481 0.013015712 0.03389911 -0.04478853 0.026017243 0.03817256 0.0012019336
-0.028391719 0.047347523 -0.011139291 0.036759235 0.049804904 0.008561993 0.006009448 -0.04609139
-0.02452879 -0.016651481 -0.038380988 -0.0013765097 0.0053406893 0.03722639 0.047882237 -0.004456234
0.015164077 -0.017492194 -0.023216058 -0.004609442 -0.016951436 -0.013332355 -0.024766399 -0.014121789
0.018818362 0.013762265 -0.017434282 0.011204946 -0.04049275 -0.04025885 0.016959507 0.011501557
0.009200645 -0.030817736 -0.043190356 0.009545076 0.0041211843 -0.030131388 -0.040995743 0.009750706
-0.042685814 -0.03236133 -0.04451965 -0.0074206293 0.034276824 -0.020816147 0.017191887 0.04324273
-0.016584976 0.003320694 -0.049444266 0.0054744664 0.046028655 0.027381057 -0.031421717 -0.013503236
-0.007972754 0.03436593 -0.03807167 0.03571528 -0.004343498 -0.029116035 -0.018578727 -0.01058014
0.023573477 -0.018899381 -0.022900999 -0.0200733 0.047572512 0.029236484 0.0042815926 -0.028152704
00000000: a7cd 4c3c 2d61 b6bc 1553 05bd f7e5 ce3c
00000010: d3ed 5ebc 00ed 78bb e2bd 39bd d3b6 70bc
00000020: a7f4 9f3b 323d 043d 5334 583c 7205 1a3d
00000030: e741 16bc c3ef b7bc 2312 87bc 80b1 33bb
00000040: 9f60 30bd 3d9e d13c 3a55 683c 103e 353d
00000050: 93f2 af3c 000f 1c3d 2355 1ebd ad12 4a3c
00000060: 3d3a b93c 6700 723b ad21 5c3c f217 00bd
00000070: 6b62 113d 7328 3abd 07e2 cebc 1f16 3dbd
00000080: 9f45 453d d3da 79bc a0a5 e53c 7333 e1bb
00000090: 309e e0bc 0bf9 32bd 004d d93c 670a febb
000000a0: ddd2 36bd 27fa 5fbc da3f 553c cbd9 0a3d
000000b0: 2d74 37bd 1d22 d53c d55a 1c3d 338a 9d3a
000000c0: c095 e8bc 7aef 413d 9381 36bc da90 163d
000000d0: 3a00 4c3d 9a47 0c3c e7ea c43b 53ca 3cbd
000000e0: 9af0 c8bc b068 88bc 6235 1dbd 006c b4ba
000000f0: f300 af3b b37a 183d 2a20 443d 9a05 92bb
00000100: c072 783c ca4b 8fbc 9a2f bebc cd0a 97bb
00000110: bddd 8abc f36f 5abc e7e2 cabc 135f 67bc
00000120: f728 9a3c 207b 613c 57d2 8ebc f394 373c
00000130: badb 25bd 77e6 24bd aaee 8a3c 0771 3c3c
00000140: 4dbe 163c 7a75 fcbc 5fe8 30bd f362 1c3c
00000150: 000b 873b 1ad6 f6bc 27eb 27bd 6dc1 1f3c
00000160: 52d7 2ebd 508d 04bd 3d5a 36bd c028 f3bb
00000170: db65 0c3d a086 aabc 00d6 8c3c 4a1f 313d
00000180: 37dd 87bc 00a0 593b 1286 4abd 2763 b33b
00000190: 8b88 3c3d 3d4e e03c 0fb4 00bd ad3c 5dbc
000001a0: 27a0 02bc 4ac3 0c3d 0af1 1bbd 2f4a 123d
000001b0: e753 8ebb c084 eebc 6a32 98bc 5358 2dbc
000001c0: 2a1d c13c e0d2 9abc e09a bbbc c370 a4bc
000001d0: 65db 423d 5a81 ef3c 9a4c 8c3b 80a0 e6bc

fc2.weight f4 [84, 120]
-0.023253461 -0.0111489715 -0.015758473 0.03627364 0.07525345 -0.010605544 0.011693237 0.011657838
-0.03191049 -0.058472753 0.008589005 -0.03975242 -0.03574129 0.053851552 0.07574096 -0.08631717
-0.07519771 -0.07132938 0.043891717 -0.07940021 0.026396545 -0.08258914 -0.034741744 -0.016868485
0.084469914 -0.08422758 0.026607856 -0.04109837 0.0074959467 0.0906252 0.033755764 0.06100904
-0.033642188 0.073336676 0.024748664 -0.061975602 -0.020095764 -0.026746582 -0.028884938 0.009536241
0.07859995 0.05737967 -0.029114902 0.08299488 -0.024756063 -0.0042005125 0.059377883 -0.04270394
0.061839268 0.019754985 -0.0314843 0.011052217 -0.081978455 -0.026335603 -0.006465602 -0.08039072
0.048908073 0.030290676 0.058340956 0.004634051 -0.00016336463 -0.050791916 -0.04178428 -0.074148215
0.007930867 0.026079968 -0.039963502 0.06224793 -0.07017961 0.030476786 0.050922316 -0.08046698
-0.086792864 -0.060371533 -0.0020464433 -0.014650941 -0.08529105 -0.0040614153 -0.07965731 0.03941091
-0.022253828 -0.05825121 -0.008977099 0.059290793 -0.059605792 -0.008608594 0.0101754 -0.02194093
-0.020317588 0.039300893 0.05052951 0.04733625 0.011985655 0.054790843 -0.00964217 -0.07998416
-0.08540677 -0.013262635 -0.08774631 0.052556887 0.0044931364 -0.054783083 -0.04672437 -0.01257937
-0.004410921 -0.023332858 -0.06508347 -0.05724435 -0.012137604 -0.09071476 -0.07414619 -0.07819545
0.08587968 0.049352515 -0.08339403 0.013200476 -0.062701456 -0.023391841 -0.048349313 0.059549812
0.013008687 -0.039430205 -0.0897783 -0.0033624799 0.041814152 0.002623922 0.014900199 0.02254605
0.08605248 0.005949282 0.0809848 0.020988382 0.0786312 -0.05008941 -0.014327248 0.091193534
0.06844116 -0.02014405 -0.027141554 -0.027895229 -0.089155056 -0.06946652 -0.05244934 0.0433298
0.062633544 -0.015956692 -0.000861941 -0.04785957 -0.058891337 -0.058824062 -0.0060044555 -0.0058530504
0.042123165 -0.066831246 -0.04113672 0.018749878 -0.041860946 0.0682873 -0.078359194 -0.029180566
0.06227926 0.06269547 -0.0069669704 0.052062538 0.05006412 -0.076866396 -0.044071928 -0.01122703
0.057497635 0.06442858 0.04257245 -0.0045807064 0.027218493 -0.030638387 -0.011223668 0.07510326
0.060647942 -0.058518164 0.0782073 -0.070316926 -0.05854118 0.08606062 0.0014292119 -0.046341404
0.057829175 -0.039823197 0.0014518253 -0.08087124 0.085827425 0.054765772 -0.074742645 0.06547483
0.023848101 -0.058307655 -0.03982978 0.015876066 0.08623792 0.05060613 0.004315712 0.024365706
0.032567866 0.07064614 -0.050817575 0.045728613 0.081955306 0.058837753 0.02773429 -0.060978893
-0.01130066 -0.001808176 0.0077937506 0.082725726 0.081488445 0.05798812 0.043221034 0.027438836
0.08462393 -0.039518777 0.07074003 -0.031119253 0.018489378 0.068615824 -0.05962875 -0.03507694
-0.08717395 -0.07109902 -0.0080645345 0.06264831 -0.08382425 -0.0518466 -0.04597751 -0.08623782
-0.01943495 0.0695885 -0.07164755 -0.075349465 0.04476095 0.0016058094 -0.054661725 0.06927782
0.09104591 0.058782604 -0.014925925 -0.0028881868 0.005230541 -0.06518281 0.024270345 0.06336571
0.05805312 0.07517179 -0.07442337 -0.035377756 -0.052973025 0.04178057 0.08976573 0.07988082
00000000: 0b7e bebc 2daa 36bc ea17 81bc ab93 143d
00000010: 7b1e 9a3d e0c2 2dbc fe94 3f3c 8400 3f3c
00000020: 93b4 02bd 2081 6fbd e6b8 0c3c 6fd3 22bd
00000030: 7565 12bd 7293 5c3d 141e 9b3d 0ec7 b0bd
00000040: 4201 9abd 2315 92bd cdc7 333d 949c a2bd
00000050: 913d d83c 7f24 a9bd 5c4d 0ebd c72f 8abc
00000060: 90fe ac3d 827f acbd b8f8 d93c c456 28bd
00000070: 8fa0 f53b b499 b93d 7c43 0a3d 9de4 793d
00000080: 64cc 09bd 8a31 963d b6bd ca3c 21da 7dbd
00000090: df9f a4bc a61b dbbc 1ba0 ecbc e53d 1c3c
000000a0: 03f9 a03d f206 6b3d 6082 eebc 38f9 a93d
000000b0: 3acd cabc 74a4 89bb 3936 733d 54ea 2ebd
000000c0: 2c4b 7d3d 35d5 a13c aef5 00bd 5c14 353c
000000d0: 52e4 a7bd c3bd d7bc 67dd d3bb e4a3 a4bd
000000e0: d553 483d 2724 f83c edf6 6e3d 3dd9 973b
000000f0: dc4c 2bb9 2f0b 50bd fe25 2bbd 05db 97bd
00000100: 78f0 013c a8a5 d53c c5b0 23bd aff7 7e3d
00000110: 54ba 8fbd 74aa f93c eb93 503d dfcb a4bd
00000120: 75c0 b1bd 2448 77bd 9f1d 06bb 800a 70bc
00000130: 13ad aebd 9f15 85bb 5f23 a3bd 566d 213d
00000140: a94d b6bc d298 6ebd af14 13bc e7da 723d
00000150: 3425 74bd 0f0b 0dbc b9b6 263c 77bd b3bc
00000160: 1271 a6bc f9f9 203d 08f8 4e3d a8e3 413d
00000170: 7b5f 443c 5d6c 603d 31fa 1dbc bcce a3bd
00000180: bfe9 aebd 864b 59bc 56b4 b3bd e445 573d
00000190: 293b 933b 3a64 60bd 0e62 3fbd b419 4ebc
000001a0: 7d89 90bb 8d24 bfbc 7b4a 85bd 0d79 6abd
000001b0: cddc 46bc a9c8 b9bd f5d9 97bd f024 a0bd
000001c0: b0e1 af3d dd25 4a3d 7dca aabd cf46 583c
000001d0: 9f69 80bd 3fa0 bfbc ee09 46bd 81ea 733d
000001e0: 6322 553c 9181 21bd afdd b7bd 0d5d 5cbb
000001f0: 5145 2b3d 1bf6 2b3b f71f 743c 7eb2 b83c
00000200: 483c b03d 32f2 c23b 5cdb a53d d4ef ab3c
00000210: 6509 a13d 8e2a 4dbd d5bc 6abc adc3 ba3d
00000220: e12a 8c3d 2205 a5bc f757 debc 8984 e4bc
00000230: ed96 b6bd 7644 8ebd 1ed5 56bd 977a 313d
00000240: 0446 803d 9cb7 82bc e2f3 61ba 6508 44bd
00000250: 0b38 71bd 80f1 70bd 06c1 c4bb f2ca bfbb
00000260: 5789 2c3d d2de 88bd fa7e 28bd 5899 993c
00000270: 6276 2bbd 36da 8b3d c97a a0bd 150c efbc
00000280: 8a18 7f3d 7c66 803d 2f4b e4bb 873f 553d
00000290: 0910 4d3d 216c 9dbd c484 34bd 94f1 37bc
000002a0: a482 6b3d 22f3 833d 7360 2e3d c019 96bb
000002b0: 51f9 de3c 5bfd fabc 7ae3 37bc bdcf 993d
000002c0: fa69 783d beb0 6fbd 262b a03d 5202 90bd
000002d0: e0c8 6fbd 8d40 b03d 6554 bb3a 7cd0 3dbd
000002e0: 49de 6c3d a61d 23bd 2c4b be3a d29f a5bd
000002f0: 4ac6 af3d 1352 603d ac12 99bd ab17 863d
00000300: 185d c33c 02d4 6ebd 8d24 23bd 860e 823c
00000310: 829d b03d 6048 4f3d d16a 8d3b 979a c73c
00000320: e265 053d ecae 903d 1726 50bd ed4d 3b3d
00000330: 2fd8 a73d dbff 703d 0633 e33c 01c5 79bd
00000340: 6726 39bc 5200 edba b862 ff3b 1b6c a93d
00000350: 6ae3 a63d f384 6d3d 8a08 313d 69c7 e03c
00000360: 504f ad3d 71de 21bd 26e0 903d ceed febc
00000370: 0977 973c 7486 8c3d 473d 74bd d6ac 0fbd
00000380: 4288 b2bd 5d9c 91bd 1c21 04bc c24d 803d
00000390: 0cac abbd 1a5d 54bd ea52 3cbd 749d b0bd
000003a0: 0b36 9fbc 6a84 8e3d f3bb 92bd d250 9abd
000003b0: 4257 373d 067a d23a f9e4 5fbd 88e1 8d3d
000003c0: 4776 ba3d 07c6 703d de8b 74bc bc47 3dbb
000003d0: f564 ab3b 917e 85bd 9ad2 c63c e2c5 813d
000003e0: 1cc9 6d3d abf3 993d 486b 98bd 44e8 10bd
000003f0: 3efa 58bd 1a22 2b3d 18d7 b73d 8e98 a33d

fc2.bias f4 [84]
-0.07082975 -0.0014681378 0.08909462 0.060239464 0.00903729 0.01874384 -0.050855476 0.012784621
-0.05446469 0.013862846 -0.08279473 0.002226915 -0.086051576 0.067099236 0.07460325 -0.082821555
0.08126127 -0.07438733 0.0009552021 0.00033257302 0.005877655 0.085235365 0.052171893 0.034615822
-0.005223718 -0.008682876 0.013301398 -0.05415729 0.08877112 4.9840794e-05 -0.06747513 0.0114330975
-0.020602845 0.077532575 0.0685291 -0.086143 0.056182075 0.008261993 0.022745052 -0.050477013
0.08711954 0.024647916 0.041321326 -0.08563079 -0.020894598 -0.044071298 -0.033378106 -0.0014107012
-0.08373656 -0.06236166 0.025881616 0.03297628 -0.05629919 0.05508228 0.030170048 -0.074540876
0.051750828 0.04307188 -0.017933957 0.084316336 0.027422078 -0.05893196 -0.063151374 0.05762228
-0.058265913 0.008309048 0.03555505 -0.038532842 -0.05705895 0.058883395 0.07942248 0.041134074
-0.09017704 -0.035549957 0.08794773 -0.02729839 -0.07559623 -0.078967005 0.0843049 -0.071936786
0.08267547 -0.0143777635 0.074140996 -0.015150753
00000000: 300f 91bd 886e c0ba 3d77 b63d a8bd 763d
00000010: 2411 143c ae8c 993c d54d 50bd 9676 513c
00000020: 5e16 5fbd fe20 633c 4990 a9bd 6ff1 113b
00000030: cf3b b0bd 536b 893d 97c9 983d 599e a9bd
00000040: 4f6c a63d 6258 98bd 8766 7a3a 325d ae39
00000050: 5899 c03b e18f ae3d 32b2 553d 52c9 0d3d
00000060: b92b abbb 9f42 0ebc 1bee 593c 09d4 5dbd
00000070: a2cd b53d 250c 5138 6730 8abd e351 3b3c
00000080: 4cc7 a8bc 66c9 9e3d fc58 8c3d be6b b0bd
00000090: 2d1f 663d 4f5d 073c d553 ba3c fcc0 4ebd
000000a0: bb6b b23d 6dea c93c 8d40 293d 325f afbd
000000b0: 262b abbc 1b84 34bd 7bb7 08bd 47e7 b8ba
000000c0: 137e abbd f16e 7fbd af05 d43c 2312 073d
000000d0: fb99 66bd f59d 613d 2d27 f73c e3a8 98bd
000000e0: adf8 533d 246c 303d 3cea 92bc 0bae ac3d
000000f0: 44a4 e03c a462 71bd 8255 81bd 5705 6c3d
00000100: 3da8 6ebd ac22 083c 2ca2 113d 9dd4 1dbd
00000110: a5b6 69bd b72f 713d 41a8 a23d 347c 283d
00000120: bdae b8bd d59c 11bd f11d b43d e0a0 dfbc
00000130: 32d2 9abd 74b9 a1bd 0ca8 ac3d 9853 93bd
00000140: c251 a93d b690 6bbc 3cd7 973d dd3a 78bc

fc3.weight f4 [10, 84]
0.023418926 0.082330525 0.08931611 0.024329051 0.07504337 -0.048705004 -0.0009953063 -0.081746385
-0.013760466 0.041570812 -0.030893479 -0.024239382 0.089950696 0.07321953 -0.042824134 -0.076704375
0.105256245 -0.089880876 -0.039467964 -0.03857384 0.03155083 -0.026538776 -0.10381303 -0.06861432
0.0957032 -0.10355679 0.08741315 0.08791842 -0.051105384 -0.000478182 0.045266252 0.022426363
0.06919737 -0.09928996 0.004839128 0.027178384 0.076518916 0.104040146 -0.0012411999 -0.003307044
0.019901237 0.08301291 -0.05417046 0.10132464 -0.04794387 -0.05894747 0.038435433 -0.05790785
-0.07649225 0.10690194 0.078536645 -0.098042294 0.031607214 -0.0064526605 0.045027707 0.06702234
-0.01692212 0.085817695 -0.045287546 0.07952464 -0.10829531 -0.047619976 -0.018285401 0.030759469
0.06934046 -0.086826086 -0.051469535 -0.039976776 0.08028514 -0.10350212 0.027555557 0.09868647
-0.07513761 -0.08542629 -0.07321018 0.009724612 -0.025418852 0.034974504 0.04889926 0.005765134
0.0029230833 -0.048274934 -0.044310343 0.095653206 -0.06888998 -0.097989134 -0.0052645286 -0.059662987
0.10243101 0.10639616 -0.02644445 -0.075594224 -0.056279294 -0.049089015 -0.04976463 -0.050678343
-0.106493 -0.07872306 -0.009577245 0.058948755 -0.015117921 -0.0670534 -0.0949007 0.076312624
0.028510554 -0.06681752 0.010625177 -0.04930511 0.0862294 0.02123896 0.092205495 0.07736833
0.010768356 -0.002953246 -0.035910722 -0.08766339 -0.08167665 0.08072013 -0.04466673 -0.026205359
-0.07333252 -0.10586145 0.0775127 -0.014406787 0.016770838 -0.020120362 -0.046720725 -0.05745115
-0.041924026 0.013458968 -0.09865918 0.036237635 0.024059862 0.0033769165 -0.06478463 0.008240003
-0.08289447 0.012801046 0.06657481 -0.057295177 -0.027974779 -0.060214788 0.07794376 -0.04464601
-0.05219153 0.008664519 -0.017373364 0.08781808 -0.07198081 -0.08807655 -0.025617972 0.02566901
-0.07698891 -0.10699883 -0.036797058 -0.091363005 0.05602873 0.085386015 -0.04534574 -0.07403174
0.07468192 -0.07985607 -0.013452946 0.09238178 -0.08741178 -0.0283231 0.043113615 -0.009713686
0.09988294 -0.054166 -0.052359004 -0.08010537 0.046894405 -0.039356638 0.017356027 0.043279033
-0.08630994 -0.029034663 -0.018806271 0.016848827 0.07543667 -0.06661832 0.05142301 0.01807412
0.07447458 -0.051527143 -0.10720773 -0.08084124 0.07815041 -0.010261949 -0.006143801 0.033613265
-0.042625718 0.034208715 -0.094179705 -0.0001291185 -0.0436503 -0.0042876005 -0.051305465 -0.09164041
0.032471437 0.108941235 0.031938314 -0.03516833 -0.013906987 -0.07282328 -0.045849595 0.1080201
-0.035006724 0.10688835 0.058077328 0.05352803 0.08318554 0.019748133 0.07223289 -0.044568047
-0.016902154 -0.035055354 -0.043484204 -0.026317947 -0.0934985 0.055274673 -0.034499925 -0.09924228
-0.06903248 0.0110057555 0.07081473 0.044313844 0.09557847 -0.059611116 0.08555239 0.097154774
-0.0767319 -0.10812769 -0.0064760596 -0.018543445 0.083282374 -0.09640458 0.069976926 -0.101848684
0.022094052 -0.027762963 -0.030727018 0.069177575 0.049657308 0.072898015 0.07567922 0.019506779
-0.10474846 0.09521546 0.01944886 -0.016054593 -0.06920131 -0.09665827 0.108773775 -0.09828867
00000000: 0cd9 bf3c e89c a83d 5deb b63d b84d c73c
00000010: 57b0 993d e67e 47bd f074 82ba a66a a7bd
00000020: 9473 61bc 2846 2a3d 5214 fdbc ab91 c6bc
00000030: 1238 b83d 1ff4 953d 5c68 2fbd 2f17 9dbd
00000040: 9690 d73d 7713 b8bd 29a9 21bd 9aff 1dbd
00000050: 713b 013d d967 d9bc ed9b d4bd aa85 8cbd
00000060: 0a00 c43d 9515 d4bd aa05 b33d 930e b43d
00000070: e153 51bd 80b4 fab9 1b69 393d 7eb7 b73c
00000080: 5ab7 8d3d 8958 cbbd 8c91 9e3b 34a5 de3c
00000090: f3b5 9c3d 0013 d53d c2af a2ba feba 58bb
000000a0: eb07 a33c ac02 aa3d d8e1 5dbd 4b83 cf3d
000000b0: cb60 44bd e772 71bd 796e 1d3d c830 6dbd
000000c0: f8a7 9cbd 68ef da3d d2d7 a03d 66ca c8bd
000000d0: 9176 013d d770 d3bb f96e 383d 0243 893d
000000e0: 42a0 8abc 30c1 af3d 6f7f 39bd d1dd a23d
000000f0: eec9 ddbd 2a0d 43bd 44cb 95bc 48fb fb3c
00000100: 5f02 8e3d e0d1 b1bd b8d1 52bd b0be 23bd
00000110: 896c a43d ebf8 d3bd 31bc e13c 221c ca3d
00000120: bfe1 99bd fbf3 aebd 38ef 95bd fb53 1f3c
00000130: 323b d0bc 6d41 0f3d 974a 483d 73e9 bc3b
00000140: 3391 3f3b f0bb 45bd c37e 35bd d4e5 c33d
00000150: 3116 8dbd 87ae c8bd 1182 acbb 2d61 74bd
00000160: 59c7 d13d 3be6 d93d 08a2 d8bc 25d1 9abd
00000170: 1e85 66bd 9011 49bd ffd5 4bbd 1894 4fbd
00000180: 0119 dabd 8e39 a1bd e1e9 1cbc 4074 713d
00000190: 28b1 77bc 4b53 89bd 4c5b c2bd cb49 9c3d
000001a0: f78e e93c a0d7 88bd 3915 2e3c 28f4 49bd
000001b0: 0a99 b03d 54fd ad3c 3cd6 bc3d 4973 9e3d
000001c0: c26d 303c 3f8b 41bb 1f17 13bd dd88 b3bd
000001d0: 1646 a7bd 9850 a53d 76f4 36bd 9fac d6bc
000001e0: 5c2f 96bd e3cd d8bd fabe 9e3d 720a 6cbc
000001f0: ff62 893c 75d3 a4bc 3b5e 3fbd e651 6bbd
00000200: 87b8 2bbd 0183 5c3c d30d cabd ea6d 143d
00000210: 3019 c53c 424f 5d3b cead 84bd 1401 073c
00000220: 93c4 a9bd 7abb 513c 6058 883d 59ae 6abd
00000230: 5d2b e5bc c8a3 76bd faa0 9f3d bcde 36bd
00000240: c9c6 55bd a0f5 0d3c 9652 8ebc f7d9 b33d
00000250: ad6a 93bd 7a61 b4bd c8dc d1bc d147 d23c
00000260: 5dac 9dbd 3422 dbbd 83b8 16bd 871c bbbd
00000270: 627e 653d ddde ae3d 74bc 39bd f49d 97bd
00000280: d6f2 983d 948b a3bd bf69 5cbc a932 bd3d
00000290: f304 b3bd d905 e8bc e797 303d 2726 1fbc
000002a0: 6d8f cc3d 2bdd 5dbd 6576 56bd 490e a4bd
000002b0: 5914 403d 6d34 21bd 3a2e 8e3c 5b45 313d
000002c0: 44c3 b0bd 1ada edbc 9c0f 9abc 8d06 8a3c
000002d0: 8a7e 9a3d 306f 88bd efa0 523d 2d10 943c
000002e0: 2186 983d 200e 53bd ba8f dbbd 1890 a5bd
000002f0: 520d a03d bc21 28bc f051 c9bb 10ae 093d
00000300: 4e98 2ebd 701e 0c3d 4ae1 c0bd fc63 07b9
00000310: a8ca 32bd 007f 8cbb ae25 52bd f8ad bbbd
00000320: c500 053d 951c df3d c0d1 023d ab0c 10bd
00000330: 22da 63bc 5f24 95bd c9cc 3bbd a439 dd3d
00000340: 3663 0fbd 47e8 da3d 7ee2 6d3d 3540 5b3d
00000350: 2e5d aa3d d6c6 a13c d6ee 933d fc8c 36bd
00000360: 6376 8abc 3496 0fbd 7e1c 32bd bc98 d7bc
00000370: 247c bfbd b267 623d cb4f 0dbd 893f cbbd
00000380: e760 8dbd 7c51 343c 5007 913d 6f82 353d
00000390: a5be c33d c92a 74bd 1736 af3d 15f9 c63d
000003a0: 9d25 9dbd 0d72 ddbd 2035 d4bb 6ce8 97bc
000003b0: f38f aa3d c46f c5bd 1050 8f3d 0b96 d0bd
000003c0: 96fe b43c 276f e3bc 3ab7 fbbc f9ac 8d3d
000003d0: 7665 4b3d 8e4b 953d b5fd 9a3d aecc 9f3c
000003e0: 5c86 d6bd 5300 c33d 3753 9f3c ec84 83bc
000003f0: 6bb9 8dbd c5f4 c5bd c9c4 de3d 924b c9bd

fc3.bias f4 [10]
0.10431143 0.063458316 0.069766514 -0.018176261 -0.07981916 -0.053259008 0.0886102 0.06868126
0.016728476 0.1008104
00000000: 3ba1 d53d 6ff6 813d bfe1 8e3d 62e6 94bc
00000010: 3a78 a3bd 1e26 5abd 4479 b53d c3a8 8c3d
00000020: 280a 893c af75 ce3d
